Micro-averaged F1: 0.6512900236180453
Individual scores: [ 0.8808933   0.42168675]
Confusion matrix:
Predicted    0   1  __all__
Actual                     
0          355  56      411
1           40  35       75
__all__    395  91      486


Model summary
_________________________________________________________________
Layer (type)                 Output Shape              Param #   
=================================================================
embedding_1 (Embedding)      (None, 20, 300)           2200500   
_________________________________________________________________
bidirectional_1 (Bidirection (None, 20, 256)           439296    
_________________________________________________________________
bidirectional_2 (Bidirection (None, 256)               394240    
_________________________________________________________________
dense_1 (Dense)              (None, 2)                 514       
_________________________________________________________________
activation_1 (Activation)    (None, 2)                 0         
=================================================================
Total params: 3,034,550
Trainable params: 3,034,550
Non-trainable params: 0
_________________________________________________________________
