Micro-averaged F1: 0.630847223289039
Individual scores: [ 0.89290012  0.36879433]
Confusion matrix:
Predicted    0   1  __all__
Actual                     
0          371  40      411
1           49  26       75
__all__    420  66      486


Model summary
_________________________________________________________________
Layer (type)                 Output Shape              Param #   
=================================================================
embedding_1 (Embedding)      (None, 20, 300)           2200500   
_________________________________________________________________
bidirectional_1 (Bidirection (None, 20, 256)           439296    
_________________________________________________________________
bidirectional_2 (Bidirection (None, 256)               394240    
_________________________________________________________________
dense_1 (Dense)              (None, 2)                 514       
_________________________________________________________________
activation_1 (Activation)    (None, 2)                 0         
=================================================================
Total params: 3,034,550
Trainable params: 3,034,550
Non-trainable params: 0
_________________________________________________________________
