Micro-averaged F1: 0.6531386861313868
Individual scores: [ 0.89294404  0.41333333]
Confusion matrix:
Predicted    0   1  __all__
Actual                     
0          367  44      411
1           44  31       75
__all__    411  75      486


Model summary
_________________________________________________________________
Layer (type)                 Output Shape              Param #   
=================================================================
embedding_1 (Embedding)      (None, 20, 300)           2200500   
_________________________________________________________________
bidirectional_1 (Bidirection (None, 20, 256)           439296    
_________________________________________________________________
bidirectional_2 (Bidirection (None, 128)               164352    
_________________________________________________________________
dense_1 (Dense)              (None, 2)                 258       
_________________________________________________________________
activation_1 (Activation)    (None, 2)                 0         
=================================================================
Total params: 2,804,406
Trainable params: 2,804,406
Non-trainable params: 0
_________________________________________________________________
