Micro-averaged F1: 0.5954623287671234
Individual scores: [ 0.92009132  0.27083333]
Confusion matrix:
Predicted    0   1  __all__
Actual                     
0          403   8      411
1           62  13       75
__all__    465  21      486


Model summary
_________________________________________________________________
Layer (type)                 Output Shape              Param #   
=================================================================
embedding_1 (Embedding)      (None, 20, 300)           2200500   
_________________________________________________________________
bidirectional_1 (Bidirection (None, 20, 256)           439296    
_________________________________________________________________
bidirectional_2 (Bidirection (None, 256)               394240    
_________________________________________________________________
dense_1 (Dense)              (None, 2)                 514       
_________________________________________________________________
activation_1 (Activation)    (None, 2)                 0         
=================================================================
Total params: 3,034,550
Trainable params: 3,034,550
Non-trainable params: 0
_________________________________________________________________
