Micro-averaged F1: 0.6230285271050591
Individual scores: [ 0.90459364  0.34146341]
Confusion matrix:
Predicted    0   1  __all__
Actual                     
0          384  27      411
1           54  21       75
__all__    438  48      486


Model summary
_________________________________________________________________
Layer (type)                 Output Shape              Param #   
=================================================================
embedding_1 (Embedding)      (None, 20, 300)           2200500   
_________________________________________________________________
bidirectional_1 (Bidirection (None, 20, 128)           186880    
_________________________________________________________________
bidirectional_2 (Bidirection (None, 64)                41216     
_________________________________________________________________
dense_1 (Dense)              (None, 2)                 130       
_________________________________________________________________
activation_1 (Activation)    (None, 2)                 0         
=================================================================
Total params: 2,428,726
Trainable params: 2,428,726
Non-trainable params: 0
_________________________________________________________________
