Micro-averaged F1: 0.666985049833887
Individual scores: [ 0.92325581  0.41071429]
Confusion matrix:
Predicted    0   1  __all__
Actual                     
0          397  14      411
1           52  23       75
__all__    449  37      486


Model summary
_________________________________________________________________
Layer (type)                 Output Shape              Param #   
=================================================================
embedding_1 (Embedding)      (None, 20, 300)           2200500   
_________________________________________________________________
bidirectional_1 (Bidirection (None, 20, 128)           186880    
_________________________________________________________________
bidirectional_2 (Bidirection (None, 64)                41216     
_________________________________________________________________
dense_1 (Dense)              (None, 2)                 130       
_________________________________________________________________
activation_1 (Activation)    (None, 2)                 0         
=================================================================
Total params: 2,428,726
Trainable params: 2,428,726
Non-trainable params: 0
_________________________________________________________________
