Micro-averaged F1: 0.6309639316599873
Individual scores: [ 0.91647332  0.34545455]
Confusion matrix:
Predicted    0   1  __all__
Actual                     
0          395  16      411
1           56  19       75
__all__    451  35      486


Model summary
_________________________________________________________________
Layer (type)                 Output Shape              Param #   
=================================================================
embedding_1 (Embedding)      (None, 20, 300)           2200500   
_________________________________________________________________
dropout_1 (Dropout)          (None, 20, 300)           0         
_________________________________________________________________
conv1d_1 (Conv1D)            (None, 16, 175)           262675    
_________________________________________________________________
max_pooling1d_1 (MaxPooling1 (None, 4, 175)            0         
_________________________________________________________________
lstm_1 (LSTM)                (None, 70)                68880     
_________________________________________________________________
dense_1 (Dense)              (None, 2)                 142       
_________________________________________________________________
activation_1 (Activation)    (None, 2)                 0         
=================================================================
Total params: 2,532,197
Trainable params: 2,532,197
Non-trainable params: 0
_________________________________________________________________
