Micro-averaged F1: 0.6527606874925573
Individual scores: [ 0.91569087  0.38983051]
Confusion matrix:
Predicted    0   1  __all__
Actual                     
0          391  20      411
1           52  23       75
__all__    443  43      486


Model summary
_________________________________________________________________
Layer (type)                 Output Shape              Param #   
=================================================================
embedding_1 (Embedding)      (None, 20, 300)           2200500   
_________________________________________________________________
dropout_1 (Dropout)          (None, 20, 300)           0         
_________________________________________________________________
conv1d_1 (Conv1D)            (None, 16, 100)           150100    
_________________________________________________________________
max_pooling1d_1 (MaxPooling1 (None, 4, 100)            0         
_________________________________________________________________
lstm_1 (LSTM)                (None, 70)                47880     
_________________________________________________________________
dense_1 (Dense)              (None, 2)                 142       
_________________________________________________________________
activation_1 (Activation)    (None, 2)                 0         
=================================================================
Total params: 2,398,622
Trainable params: 2,398,622
Non-trainable params: 0
_________________________________________________________________
