Micro-averaged F1: 0.5832267441860465
Individual scores: [ 0.8525      0.31395349]
Confusion matrix:
Predicted    0   1  __all__
Actual                     
0          341  70      411
1           48  27       75
__all__    389  97      486


Model summary
_________________________________________________________________
Layer (type)                 Output Shape              Param #   
=================================================================
embedding_1 (Embedding)      (None, 20, 300)           2200500   
_________________________________________________________________
dropout_1 (Dropout)          (None, 20, 300)           0         
_________________________________________________________________
conv1d_1 (Conv1D)            (None, 18, 250)           225250    
_________________________________________________________________
max_pooling1d_1 (MaxPooling1 (None, 4, 250)            0         
_________________________________________________________________
lstm_1 (LSTM)                (None, 128)               194048    
_________________________________________________________________
dense_1 (Dense)              (None, 2)                 258       
_________________________________________________________________
activation_1 (Activation)    (None, 2)                 0         
=================================================================
Total params: 2,620,056
Trainable params: 2,620,056
Non-trainable params: 0
_________________________________________________________________
