Micro-averaged F1: 0.6199562089458868
Individual scores: [ 0.89208633  0.34782609]
Confusion matrix:
Predicted    0   1  __all__
Actual                     
0          372  39      411
1           51  24       75
__all__    423  63      486


Model summary
_________________________________________________________________
Layer (type)                 Output Shape              Param #   
=================================================================
embedding_1 (Embedding)      (None, 20, 300)           2200500   
_________________________________________________________________
dropout_1 (Dropout)          (None, 20, 300)           0         
_________________________________________________________________
conv1d_1 (Conv1D)            (None, 16, 100)           150100    
_________________________________________________________________
max_pooling1d_1 (MaxPooling1 (None, 4, 100)            0         
_________________________________________________________________
lstm_1 (LSTM)                (None, 128)               117248    
_________________________________________________________________
dense_1 (Dense)              (None, 2)                 258       
_________________________________________________________________
activation_1 (Activation)    (None, 2)                 0         
=================================================================
Total params: 2,468,106
Trainable params: 2,468,106
Non-trainable params: 0
_________________________________________________________________
