Micro-averaged F1: 0.5108792719747118
Individual scores: [ 0.92049272  0.10126582]
Confusion matrix:
Predicted    0  1  __all__
Actual                    
0          411  0      411
1           71  4       75
__all__    482  4      486


Model summary
_________________________________________________________________
Layer (type)                 Output Shape              Param #   
=================================================================
embedding_1 (Embedding)      (None, 20, 300)           2200500   
_________________________________________________________________
dropout_1 (Dropout)          (None, 20, 300)           0         
_________________________________________________________________
conv1d_1 (Conv1D)            (None, 18, 175)           157675    
_________________________________________________________________
max_pooling1d_1 (MaxPooling1 (None, 4, 175)            0         
_________________________________________________________________
lstm_1 (LSTM)                (None, 128)               155648    
_________________________________________________________________
dense_1 (Dense)              (None, 2)                 258       
_________________________________________________________________
activation_1 (Activation)    (None, 2)                 0         
=================================================================
Total params: 2,514,081
Trainable params: 2,514,081
Non-trainable params: 0
_________________________________________________________________
