Micro-averaged F1: 0.6331733681218842
Individual scores: [ 0.90414201  0.36220472]
Confusion matrix:
Predicted    0   1  __all__
Actual                     
0          382  29      411
1           52  23       75
__all__    434  52      486


Model summary
_________________________________________________________________
Layer (type)                 Output Shape              Param #   
=================================================================
embedding_1 (Embedding)      (None, 20, 300)           2200500   
_________________________________________________________________
dropout_1 (Dropout)          (None, 20, 300)           0         
_________________________________________________________________
conv1d_1 (Conv1D)            (None, 18, 250)           225250    
_________________________________________________________________
global_max_pooling1d_1 (Glob (None, 250)               0         
_________________________________________________________________
dense_1 (Dense)              (None, 2)                 502       
_________________________________________________________________
activation_1 (Activation)    (None, 2)                 0         
=================================================================
Total params: 2,426,252
Trainable params: 2,426,252
Non-trainable params: 0
_________________________________________________________________
