Micro-averaged F1: 0.6203429923122412
Individual scores: [ 0.86641698  0.37426901]
Confusion matrix:
Predicted    0   1  __all__
Actual                     
0          347  64      411
1           43  32       75
__all__    390  96      486


Model summary
_________________________________________________________________
Layer (type)                 Output Shape              Param #   
=================================================================
embedding_1 (Embedding)      (None, 20, 300)           2200500   
_________________________________________________________________
dropout_1 (Dropout)          (None, 20, 300)           0         
_________________________________________________________________
conv1d_1 (Conv1D)            (None, 16, 100)           150100    
_________________________________________________________________
max_pooling1d_1 (MaxPooling1 (None, 4, 100)            0         
_________________________________________________________________
lstm_1 (LSTM)                (None, 128)               117248    
_________________________________________________________________
dense_1 (Dense)              (None, 2)                 258       
_________________________________________________________________
activation_1 (Activation)    (None, 2)                 0         
=================================================================
Total params: 2,468,106
Trainable params: 2,468,106
Non-trainable params: 0
_________________________________________________________________
