Micro-averaged F1: 0.4718632518796992
Individual scores: [ 0.91741071  0.02631579]
Confusion matrix:
Predicted    0  1  __all__
Actual                    
0          411  0      411
1           74  1       75
__all__    485  1      486


Model summary
_________________________________________________________________
Layer (type)                 Output Shape              Param #   
=================================================================
embedding_1 (Embedding)      (None, 20, 300)           2200500   
_________________________________________________________________
dropout_1 (Dropout)          (None, 20, 300)           0         
_________________________________________________________________
conv1d_1 (Conv1D)            (None, 18, 250)           225250    
_________________________________________________________________
max_pooling1d_1 (MaxPooling1 (None, 4, 250)            0         
_________________________________________________________________
lstm_1 (LSTM)                (None, 70)                89880     
_________________________________________________________________
dense_1 (Dense)              (None, 2)                 142       
_________________________________________________________________
activation_1 (Activation)    (None, 2)                 0         
=================================================================
Total params: 2,515,772
Trainable params: 2,515,772
Non-trainable params: 0
_________________________________________________________________
