Micro-averaged F1: 0.6753988868274582
Individual scores: [ 0.90181818  0.44897959]
Confusion matrix:
Predicted    0   1  __all__
Actual                     
0          372  39      411
1           42  33       75
__all__    414  72      486


Model summary
_________________________________________________________________
Layer (type)                 Output Shape              Param #   
=================================================================
embedding_1 (Embedding)      (None, 20, 300)           2200500   
_________________________________________________________________
dropout_1 (Dropout)          (None, 20, 300)           0         
_________________________________________________________________
conv1d_1 (Conv1D)            (None, 18, 100)           90100     
_________________________________________________________________
global_max_pooling1d_1 (Glob (None, 100)               0         
_________________________________________________________________
dense_1 (Dense)              (None, 2)                 202       
_________________________________________________________________
activation_1 (Activation)    (None, 2)                 0         
=================================================================
Total params: 2,290,802
Trainable params: 2,290,802
Non-trainable params: 0
_________________________________________________________________
