Micro-averaged F1: 0.6077953296703297
Individual scores: [ 0.88701923  0.32857143]
Confusion matrix:
Predicted    0   1  __all__
Actual                     
0          369  42      411
1           52  23       75
__all__    421  65      486


Model summary
_________________________________________________________________
Layer (type)                 Output Shape              Param #   
=================================================================
embedding_1 (Embedding)      (None, 20, 300)           2200500   
_________________________________________________________________
dropout_1 (Dropout)          (None, 20, 300)           0         
_________________________________________________________________
conv1d_1 (Conv1D)            (None, 18, 100)           90100     
_________________________________________________________________
max_pooling1d_1 (MaxPooling1 (None, 4, 100)            0         
_________________________________________________________________
lstm_1 (LSTM)                (None, 128)               117248    
_________________________________________________________________
dense_1 (Dense)              (None, 2)                 258       
_________________________________________________________________
activation_1 (Activation)    (None, 2)                 0         
=================================================================
Total params: 2,408,106
Trainable params: 2,408,106
Non-trainable params: 0
_________________________________________________________________
