Micro-averaged F1: 0.5205261715538503
Individual scores: [ 0.91910112  0.12195122]
Confusion matrix:
Predicted    0  1  __all__
Actual                    
0          409  2      411
1           70  5       75
__all__    479  7      486


Model summary
_________________________________________________________________
Layer (type)                 Output Shape              Param #   
=================================================================
embedding_1 (Embedding)      (None, 20, 300)           2200500   
_________________________________________________________________
dropout_1 (Dropout)          (None, 20, 300)           0         
_________________________________________________________________
conv1d_1 (Conv1D)            (None, 18, 175)           157675    
_________________________________________________________________
max_pooling1d_1 (MaxPooling1 (None, 4, 175)            0         
_________________________________________________________________
lstm_1 (LSTM)                (None, 70)                68880     
_________________________________________________________________
dense_1 (Dense)              (None, 2)                 142       
_________________________________________________________________
activation_1 (Activation)    (None, 2)                 0         
=================================================================
Total params: 2,427,197
Trainable params: 2,427,197
Non-trainable params: 0
_________________________________________________________________
