Micro-averaged F1: 0.5751748251748252
Individual scores: [ 0.92307692  0.22727273]
Confusion matrix:
Predicted    0   1  __all__
Actual                     
0          408   3      411
1           65  10       75
__all__    473  13      486


Model summary
_________________________________________________________________
Layer (type)                 Output Shape              Param #   
=================================================================
embedding_1 (Embedding)      (None, 20, 300)           2200500   
_________________________________________________________________
dropout_1 (Dropout)          (None, 20, 300)           0         
_________________________________________________________________
conv1d_1 (Conv1D)            (None, 18, 175)           157675    
_________________________________________________________________
global_max_pooling1d_1 (Glob (None, 175)               0         
_________________________________________________________________
dense_1 (Dense)              (None, 2)                 352       
_________________________________________________________________
activation_1 (Activation)    (None, 2)                 0         
=================================================================
Total params: 2,358,527
Trainable params: 2,358,527
Non-trainable params: 0
_________________________________________________________________
