Micro-averaged F1: 0.49710122329794315
Individual scores: [ 0.91825308  0.07594937]
Confusion matrix:
Predicted    0  1  __all__
Actual                    
0          410  1      411
1           72  3       75
__all__    482  4      486


Model summary
_________________________________________________________________
Layer (type)                 Output Shape              Param #   
=================================================================
embedding_1 (Embedding)      (None, 20, 300)           2200500   
_________________________________________________________________
dropout_1 (Dropout)          (None, 20, 300)           0         
_________________________________________________________________
conv1d_1 (Conv1D)            (None, 16, 100)           150100    
_________________________________________________________________
max_pooling1d_1 (MaxPooling1 (None, 4, 100)            0         
_________________________________________________________________
lstm_1 (LSTM)                (None, 70)                47880     
_________________________________________________________________
dense_1 (Dense)              (None, 2)                 142       
_________________________________________________________________
activation_1 (Activation)    (None, 2)                 0         
=================================================================
Total params: 2,398,622
Trainable params: 2,398,622
Non-trainable params: 0
_________________________________________________________________
