Micro-averaged F1: 0.6568936877076412
Individual scores: [ 0.92093023  0.39285714]
Confusion matrix:
Predicted    0   1  __all__
Actual                     
0          396  15      411
1           53  22       75
__all__    449  37      486


Model summary
_________________________________________________________________
Layer (type)                 Output Shape              Param #   
=================================================================
embedding_1 (Embedding)      (None, 20, 300)           2200500   
_________________________________________________________________
dropout_1 (Dropout)          (None, 20, 300)           0         
_________________________________________________________________
conv1d_1 (Conv1D)            (None, 16, 100)           150100    
_________________________________________________________________
global_max_pooling1d_1 (Glob (None, 100)               0         
_________________________________________________________________
dense_1 (Dense)              (None, 2)                 202       
_________________________________________________________________
activation_1 (Activation)    (None, 2)                 0         
=================================================================
Total params: 2,350,802
Trainable params: 2,350,802
Non-trainable params: 0
_________________________________________________________________
