Micro-averaged F1: 0.6230285271050591
Individual scores: [ 0.90459364  0.34146341]
Confusion matrix:
Predicted    0   1  __all__
Actual                     
0          384  27      411
1           54  21       75
__all__    438  48      486


Model summary
_________________________________________________________________
Layer (type)                 Output Shape              Param #   
=================================================================
embedding_1 (Embedding)      (None, 20, 300)           2200500   
_________________________________________________________________
dropout_1 (Dropout)          (None, 20, 300)           0         
_________________________________________________________________
conv1d_1 (Conv1D)            (None, 18, 100)           90100     
_________________________________________________________________
max_pooling1d_1 (MaxPooling1 (None, 4, 100)            0         
_________________________________________________________________
lstm_1 (LSTM)                (None, 70)                47880     
_________________________________________________________________
dense_1 (Dense)              (None, 2)                 142       
_________________________________________________________________
activation_1 (Activation)    (None, 2)                 0         
=================================================================
Total params: 2,338,622
Trainable params: 2,338,622
Non-trainable params: 0
_________________________________________________________________
