Micro-averaged F1: 0.5801148834819969
Individual scores: [ 0.91533181  0.24489796]
Confusion matrix:
Predicted    0   1  __all__
Actual                     
0          400  11      411
1           63  12       75
__all__    463  23      486


Model summary
_________________________________________________________________
Layer (type)                 Output Shape              Param #   
=================================================================
embedding_1 (Embedding)      (None, 20, 300)           2200500   
_________________________________________________________________
lstm_1 (LSTM)                (None, 20, 64)            93440     
_________________________________________________________________
lstm_2 (LSTM)                (None, 32)                12416     
_________________________________________________________________
dense_1 (Dense)              (None, 2)                 66        
_________________________________________________________________
activation_1 (Activation)    (None, 2)                 0         
=================================================================
Total params: 2,306,422
Trainable params: 2,306,422
Non-trainable params: 0
_________________________________________________________________
