Micro-averaged F1: 0.6111892741868741
Individual scores: [ 0.89679715  0.3255814 ]
Confusion matrix:
Predicted    0   1  __all__
Actual                     
0          378  33      411
1           54  21       75
__all__    432  54      486


Model summary
_________________________________________________________________
Layer (type)                 Output Shape              Param #   
=================================================================
embedding_1 (Embedding)      (None, 20, 300)           2200500   
_________________________________________________________________
lstm_1 (LSTM)                (None, 20, 64)            93440     
_________________________________________________________________
lstm_2 (LSTM)                (None, 32)                12416     
_________________________________________________________________
dense_1 (Dense)              (None, 2)                 66        
_________________________________________________________________
activation_1 (Activation)    (None, 2)                 0         
=================================================================
Total params: 2,306,422
Trainable params: 2,306,422
Non-trainable params: 0
_________________________________________________________________
