Micro-averaged F1: 0.6323881227132001
Individual scores: [ 0.89712919  0.36764706]
Confusion matrix:
Predicted    0   1  __all__
Actual                     
0          375  36      411
1           50  25       75
__all__    425  61      486


Model summary
_________________________________________________________________
Layer (type)                 Output Shape              Param #   
=================================================================
embedding_1 (Embedding)      (None, 20, 300)           2200500   
_________________________________________________________________
lstm_1 (LSTM)                (None, 20, 128)           219648    
_________________________________________________________________
lstm_2 (LSTM)                (None, 64)                49408     
_________________________________________________________________
dense_1 (Dense)              (None, 2)                 130       
_________________________________________________________________
activation_1 (Activation)    (None, 2)                 0         
=================================================================
Total params: 2,469,686
Trainable params: 2,469,686
Non-trainable params: 0
_________________________________________________________________
