Micro-averaged F1: 0.6270418417686825
Individual scores: [ 0.90023753  0.35384615]
Confusion matrix:
Predicted    0   1  __all__
Actual                     
0          379  32      411
1           52  23       75
__all__    431  55      486


Model summary
_________________________________________________________________
Layer (type)                 Output Shape              Param #   
=================================================================
embedding_1 (Embedding)      (None, 20, 300)           2200500   
_________________________________________________________________
lstm_1 (LSTM)                (None, 20, 128)           219648    
_________________________________________________________________
lstm_2 (LSTM)                (None, 128)               131584    
_________________________________________________________________
dense_1 (Dense)              (None, 2)                 258       
_________________________________________________________________
activation_1 (Activation)    (None, 2)                 0         
=================================================================
Total params: 2,551,990
Trainable params: 2,551,990
Non-trainable params: 0
_________________________________________________________________
