Micro-averaged F1: 0.5836734693877551
Individual scores: [ 0.92290249  0.24444444]
Confusion matrix:
Predicted    0   1  __all__
Actual                     
0          407   4      411
1           64  11       75
__all__    471  15      486


Model summary
_________________________________________________________________
Layer (type)                 Output Shape              Param #   
=================================================================
embedding_1 (Embedding)      (None, 20, 300)           2200500   
_________________________________________________________________
lstm_1 (LSTM)                (None, 20, 64)            93440     
_________________________________________________________________
lstm_2 (LSTM)                (None, 32)                12416     
_________________________________________________________________
dense_1 (Dense)              (None, 2)                 66        
_________________________________________________________________
activation_1 (Activation)    (None, 2)                 0         
=================================================================
Total params: 2,306,422
Trainable params: 2,306,422
Non-trainable params: 0
_________________________________________________________________
