Micro-averaged F1: 0.6380038070015724
Individual scores: [ 0.90391459  0.37209302]
Confusion matrix:
Predicted    0   1  __all__
Actual                     
0          381  30      411
1           51  24       75
__all__    432  54      486


Model summary
_________________________________________________________________
Layer (type)                 Output Shape              Param #   
=================================================================
embedding_1 (Embedding)      (None, 20, 300)           2200500   
_________________________________________________________________
lstm_1 (LSTM)                (None, 20, 128)           219648    
_________________________________________________________________
lstm_2 (LSTM)                (None, 128)               131584    
_________________________________________________________________
dense_1 (Dense)              (None, 2)                 258       
_________________________________________________________________
activation_1 (Activation)    (None, 2)                 0         
=================================================================
Total params: 2,551,990
Trainable params: 2,551,990
Non-trainable params: 0
_________________________________________________________________
