Micro-averaged F1: 0.49072264303882385
Individual scores: [ 0.176       0.55639098  0.73977695]
Confusion matrix:
Predicted   0   1    2  __all__
Actual                         
0          11   9   90      110
1           2  37   30       69
2           2  18  199      219
__all__    15  64  319      398


Model summary
_________________________________________________________________
Layer (type)                 Output Shape              Param #   
=================================================================
embedding_1 (Embedding)      (None, 20, 300)           1966800   
_________________________________________________________________
dropout_1 (Dropout)          (None, 20, 300)           0         
_________________________________________________________________
conv1d_1 (Conv1D)            (None, 16, 250)           375250    
_________________________________________________________________
global_max_pooling1d_1 (Glob (None, 250)               0         
_________________________________________________________________
dense_1 (Dense)              (None, 3)                 753       
_________________________________________________________________
activation_1 (Activation)    (None, 3)                 0         
=================================================================
Total params: 2,342,803
Trainable params: 2,342,803
Non-trainable params: 0
_________________________________________________________________
