Micro-averaged F1: 0.5440299277605779
Individual scores: [ 0.39473684  0.48        0.75735294]
Confusion matrix:
Predicted   0   1    2  __all__
Actual                         
0          30   1   79      110
1           5  24   40       69
2           7   6  206      219
__all__    42  31  325      398


Model summary
_________________________________________________________________
Layer (type)                 Output Shape              Param #   
=================================================================
embedding_1 (Embedding)      (None, 20, 300)           1966800   
_________________________________________________________________
dropout_1 (Dropout)          (None, 20, 300)           0         
_________________________________________________________________
conv1d_1 (Conv1D)            (None, 16, 250)           375250    
_________________________________________________________________
max_pooling1d_1 (MaxPooling1 (None, 4, 250)            0         
_________________________________________________________________
lstm_1 (LSTM)                (None, 128)               194048    
_________________________________________________________________
dense_1 (Dense)              (None, 3)                 387       
_________________________________________________________________
activation_1 (Activation)    (None, 3)                 0         
=================================================================
Total params: 2,536,485
Trainable params: 2,536,485
Non-trainable params: 0
_________________________________________________________________
