Micro-averaged F1: 0.6307320642944935
Individual scores: [ 0.55434783  0.56338028  0.77446809]
Confusion matrix:
Predicted   0   1    2  __all__
Actual                         
0          51  12   47      110
1           7  40   22       69
2          16  21  182      219
__all__    74  73  251      398


Model summary
_________________________________________________________________
Layer (type)                 Output Shape              Param #   
=================================================================
embedding_1 (Embedding)      (None, 20, 300)           1966800   
_________________________________________________________________
dropout_1 (Dropout)          (None, 20, 300)           0         
_________________________________________________________________
conv1d_1 (Conv1D)            (None, 18, 100)           90100     
_________________________________________________________________
max_pooling1d_1 (MaxPooling1 (None, 4, 100)            0         
_________________________________________________________________
lstm_1 (LSTM)                (None, 128)               117248    
_________________________________________________________________
dense_1 (Dense)              (None, 3)                 387       
_________________________________________________________________
activation_1 (Activation)    (None, 3)                 0         
=================================================================
Total params: 2,174,535
Trainable params: 2,174,535
Non-trainable params: 0
_________________________________________________________________
