Micro-averaged F1: 0.6015638422303375
Individual scores: [ 0.40268456  0.63157895  0.77042802]
Confusion matrix:
Predicted   0   1    2  __all__
Actual                         
0          30   8   72      110
1           2  42   25       69
2           7  14  198      219
__all__    39  64  295      398


Model summary
_________________________________________________________________
Layer (type)                 Output Shape              Param #   
=================================================================
embedding_1 (Embedding)      (None, 20, 300)           1966800   
_________________________________________________________________
dropout_1 (Dropout)          (None, 20, 300)           0         
_________________________________________________________________
conv1d_1 (Conv1D)            (None, 16, 175)           262675    
_________________________________________________________________
global_max_pooling1d_1 (Glob (None, 175)               0         
_________________________________________________________________
dense_1 (Dense)              (None, 3)                 528       
_________________________________________________________________
activation_1 (Activation)    (None, 3)                 0         
=================================================================
Total params: 2,230,003
Trainable params: 2,230,003
Non-trainable params: 0
_________________________________________________________________
