Micro-averaged F1: 0.6404582516894218
Individual scores: [ 0.50588235  0.62992126  0.78557114]
Confusion matrix:
Predicted   0   1    2  __all__
Actual                         
0          43   7   60      110
1           5  40   24       69
2          12  11  196      219
__all__    60  58  280      398


Model summary
_________________________________________________________________
Layer (type)                 Output Shape              Param #   
=================================================================
embedding_1 (Embedding)      (None, 20, 300)           1966800   
_________________________________________________________________
dropout_1 (Dropout)          (None, 20, 300)           0         
_________________________________________________________________
conv1d_1 (Conv1D)            (None, 18, 100)           90100     
_________________________________________________________________
global_max_pooling1d_1 (Glob (None, 100)               0         
_________________________________________________________________
dense_1 (Dense)              (None, 3)                 303       
_________________________________________________________________
activation_1 (Activation)    (None, 3)                 0         
=================================================================
Total params: 2,057,203
Trainable params: 2,057,203
Non-trainable params: 0
_________________________________________________________________
