Micro-averaged F1: 0.6422238441342537
Individual scores: [ 0.55670103  0.61333333  0.75663717]
Confusion matrix:
Predicted   0   1    2  __all__
Actual                         
0          54   9   47      110
1           8  46   15       69
2          22  26  171      219
__all__    84  81  233      398


Model summary
_________________________________________________________________
Layer (type)                 Output Shape              Param #   
=================================================================
embedding_1 (Embedding)      (None, 20, 300)           1966800   
_________________________________________________________________
dropout_1 (Dropout)          (None, 20, 300)           0         
_________________________________________________________________
conv1d_1 (Conv1D)            (None, 16, 250)           375250    
_________________________________________________________________
max_pooling1d_1 (MaxPooling1 (None, 4, 250)            0         
_________________________________________________________________
lstm_1 (LSTM)                (None, 128)               194048    
_________________________________________________________________
dense_1 (Dense)              (None, 3)                 387       
_________________________________________________________________
activation_1 (Activation)    (None, 3)                 0         
=================================================================
Total params: 2,536,485
Trainable params: 2,536,485
Non-trainable params: 0
_________________________________________________________________
