Micro-averaged F1: 0.6515987210231815
Individual scores: [ 0.61666667  0.61870504  0.71942446]
Confusion matrix:
Predicted    0   1    2  __all__
Actual                          
0           74   5   31      110
1            9  43   17       69
2           47  22  150      219
__all__    130  70  198      398


Model summary
_________________________________________________________________
Layer (type)                 Output Shape              Param #   
=================================================================
embedding_1 (Embedding)      (None, 20, 300)           1966800   
_________________________________________________________________
dropout_1 (Dropout)          (None, 20, 300)           0         
_________________________________________________________________
conv1d_1 (Conv1D)            (None, 16, 250)           375250    
_________________________________________________________________
max_pooling1d_1 (MaxPooling1 (None, 4, 250)            0         
_________________________________________________________________
lstm_1 (LSTM)                (None, 70)                89880     
_________________________________________________________________
dense_1 (Dense)              (None, 3)                 213       
_________________________________________________________________
activation_1 (Activation)    (None, 3)                 0         
=================================================================
Total params: 2,432,143
Trainable params: 2,432,143
Non-trainable params: 0
_________________________________________________________________
