Micro-averaged F1: 0.6357602179447355
Individual scores: [ 0.56038647  0.57971014  0.76718404]
Confusion matrix:
Predicted   0   1    2  __all__
Actual                         
0          58  10   42      110
1          12  40   17       69
2          27  19  173      219
__all__    97  69  232      398


Model summary
_________________________________________________________________
Layer (type)                 Output Shape              Param #   
=================================================================
embedding_1 (Embedding)      (None, 20, 300)           1966800   
_________________________________________________________________
dropout_1 (Dropout)          (None, 20, 300)           0         
_________________________________________________________________
conv1d_1 (Conv1D)            (None, 18, 250)           225250    
_________________________________________________________________
max_pooling1d_1 (MaxPooling1 (None, 4, 250)            0         
_________________________________________________________________
lstm_1 (LSTM)                (None, 128)               194048    
_________________________________________________________________
dense_1 (Dense)              (None, 3)                 387       
_________________________________________________________________
activation_1 (Activation)    (None, 3)                 0         
=================================================================
Total params: 2,386,485
Trainable params: 2,386,485
Non-trainable params: 0
_________________________________________________________________
