Micro-averaged F1: 0.6517017741813189
Individual scores: [ 0.57142857  0.62773723  0.75593952]
Confusion matrix:
Predicted   0   1    2  __all__
Actual                         
0          56   7   47      110
1           4  43   22       69
2          26  18  175      219
__all__    86  68  244      398


Model summary
_________________________________________________________________
Layer (type)                 Output Shape              Param #   
=================================================================
embedding_1 (Embedding)      (None, 20, 300)           1966800   
_________________________________________________________________
dropout_1 (Dropout)          (None, 20, 300)           0         
_________________________________________________________________
conv1d_1 (Conv1D)            (None, 18, 250)           225250    
_________________________________________________________________
global_max_pooling1d_1 (Glob (None, 250)               0         
_________________________________________________________________
dense_1 (Dense)              (None, 3)                 753       
_________________________________________________________________
activation_1 (Activation)    (None, 3)                 0         
=================================================================
Total params: 2,192,803
Trainable params: 2,192,803
Non-trainable params: 0
_________________________________________________________________
