Micro-averaged F1: 0.6858932618998558
Individual scores: [ 0.63507109  0.64        0.7826087 ]
Confusion matrix:
Predicted    0   1    2  __all__
Actual                          
0           67   3   40      110
1            8  40   21       69
2           26  13  180      219
__all__    101  56  241      398


Model summary
_________________________________________________________________
Layer (type)                 Output Shape              Param #   
=================================================================
embedding_1 (Embedding)      (None, 20, 300)           1966800   
_________________________________________________________________
dropout_1 (Dropout)          (None, 20, 300)           0         
_________________________________________________________________
conv1d_1 (Conv1D)            (None, 16, 250)           375250    
_________________________________________________________________
global_max_pooling1d_1 (Glob (None, 250)               0         
_________________________________________________________________
dense_1 (Dense)              (None, 3)                 753       
_________________________________________________________________
activation_1 (Activation)    (None, 3)                 0         
=================================================================
Total params: 2,342,803
Trainable params: 2,342,803
Non-trainable params: 0
_________________________________________________________________
