Micro-averaged F1: 0.6029719140740147
Individual scores: [ 0.54081633  0.51968504  0.74841438]
Confusion matrix:
Predicted   0   1    2  __all__
Actual                         
0          53   7   50      110
1           9  33   27       69
2          24  18  177      219
__all__    86  58  254      398


Model summary
_________________________________________________________________
Layer (type)                 Output Shape              Param #   
=================================================================
embedding_1 (Embedding)      (None, 20, 300)           1966800   
_________________________________________________________________
dropout_1 (Dropout)          (None, 20, 300)           0         
_________________________________________________________________
conv1d_1 (Conv1D)            (None, 16, 250)           375250    
_________________________________________________________________
max_pooling1d_1 (MaxPooling1 (None, 4, 250)            0         
_________________________________________________________________
lstm_1 (LSTM)                (None, 70)                89880     
_________________________________________________________________
dense_1 (Dense)              (None, 3)                 213       
_________________________________________________________________
activation_1 (Activation)    (None, 3)                 0         
=================================================================
Total params: 2,432,143
Trainable params: 2,432,143
Non-trainable params: 0
_________________________________________________________________
