Micro-averaged F1: 0.610428250902351
Individual scores: [ 0.52736318  0.55882353  0.74509804]
Confusion matrix:
Predicted   0   1    2  __all__
Actual                         
0          53  10   47      110
1           9  38   22       69
2          29  19  171      219
__all__    91  67  240      398


Model summary
_________________________________________________________________
Layer (type)                 Output Shape              Param #   
=================================================================
embedding_1 (Embedding)      (None, 20, 300)           1966800   
_________________________________________________________________
dropout_1 (Dropout)          (None, 20, 300)           0         
_________________________________________________________________
conv1d_1 (Conv1D)            (None, 18, 175)           157675    
_________________________________________________________________
max_pooling1d_1 (MaxPooling1 (None, 4, 175)            0         
_________________________________________________________________
lstm_1 (LSTM)                (None, 70)                68880     
_________________________________________________________________
dense_1 (Dense)              (None, 3)                 213       
_________________________________________________________________
activation_1 (Activation)    (None, 3)                 0         
=================================================================
Total params: 2,193,568
Trainable params: 2,193,568
Non-trainable params: 0
_________________________________________________________________
