Micro-averaged F1: 0.6101042041976937
Individual scores: [ 0.44871795  0.60130719  0.78028747]
Confusion matrix:
Predicted   0   1    2  __all__
Actual                         
0          35  16   59      110
1           4  46   19       69
2           7  22  190      219
__all__    46  84  268      398


Model summary
_________________________________________________________________
Layer (type)                 Output Shape              Param #   
=================================================================
embedding_1 (Embedding)      (None, 20, 300)           1966800   
_________________________________________________________________
dropout_1 (Dropout)          (None, 20, 300)           0         
_________________________________________________________________
conv1d_1 (Conv1D)            (None, 18, 250)           225250    
_________________________________________________________________
global_max_pooling1d_1 (Glob (None, 250)               0         
_________________________________________________________________
dense_1 (Dense)              (None, 3)                 753       
_________________________________________________________________
activation_1 (Activation)    (None, 3)                 0         
=================================================================
Total params: 2,192,803
Trainable params: 2,192,803
Non-trainable params: 0
_________________________________________________________________
