Micro-averaged F1: 0.6185955817103358
Individual scores: [ 0.58119658  0.52459016  0.75      ]
Confusion matrix:
Predicted    0   1    2  __all__
Actual                          
0           68   7   35      110
1           16  32   21       69
2           40  14  165      219
__all__    124  53  221      398


Model summary
_________________________________________________________________
Layer (type)                 Output Shape              Param #   
=================================================================
embedding_1 (Embedding)      (None, 20, 300)           1966800   
_________________________________________________________________
dropout_1 (Dropout)          (None, 20, 300)           0         
_________________________________________________________________
conv1d_1 (Conv1D)            (None, 18, 250)           225250    
_________________________________________________________________
max_pooling1d_1 (MaxPooling1 (None, 4, 250)            0         
_________________________________________________________________
lstm_1 (LSTM)                (None, 128)               194048    
_________________________________________________________________
dense_1 (Dense)              (None, 3)                 387       
_________________________________________________________________
activation_1 (Activation)    (None, 3)                 0         
=================================================================
Total params: 2,386,485
Trainable params: 2,386,485
Non-trainable params: 0
_________________________________________________________________
