Micro-averaged F1: 0.5969914436754605
Individual scores: [ 0.48087432  0.56774194  0.74235808]
Confusion matrix:
Predicted   0   1    2  __all__
Actual                         
0          44  16   50      110
1           6  44   19       69
2          23  26  170      219
__all__    73  86  239      398


Model summary
_________________________________________________________________
Layer (type)                 Output Shape              Param #   
=================================================================
embedding_1 (Embedding)      (None, 20, 300)           1966800   
_________________________________________________________________
dropout_1 (Dropout)          (None, 20, 300)           0         
_________________________________________________________________
conv1d_1 (Conv1D)            (None, 18, 175)           157675    
_________________________________________________________________
max_pooling1d_1 (MaxPooling1 (None, 4, 175)            0         
_________________________________________________________________
lstm_1 (LSTM)                (None, 70)                68880     
_________________________________________________________________
dense_1 (Dense)              (None, 3)                 213       
_________________________________________________________________
activation_1 (Activation)    (None, 3)                 0         
=================================================================
Total params: 2,193,568
Trainable params: 2,193,568
Non-trainable params: 0
_________________________________________________________________
