Micro-averaged F1: 0.6656322213785141
Individual scores: [ 0.60784314  0.62015504  0.76889849]
Confusion matrix:
Predicted   0   1    2  __all__
Actual                         
0          62   4   44      110
1           7  40   22       69
2          25  16  178      219
__all__    94  60  244      398


Model summary
_________________________________________________________________
Layer (type)                 Output Shape              Param #   
=================================================================
embedding_1 (Embedding)      (None, 20, 300)           1966800   
_________________________________________________________________
dropout_1 (Dropout)          (None, 20, 300)           0         
_________________________________________________________________
conv1d_1 (Conv1D)            (None, 16, 175)           262675    
_________________________________________________________________
max_pooling1d_1 (MaxPooling1 (None, 4, 175)            0         
_________________________________________________________________
lstm_1 (LSTM)                (None, 128)               155648    
_________________________________________________________________
dense_1 (Dense)              (None, 3)                 387       
_________________________________________________________________
activation_1 (Activation)    (None, 3)                 0         
=================================================================
Total params: 2,385,510
Trainable params: 2,385,510
Non-trainable params: 0
_________________________________________________________________
