Micro-averaged F1: 0.6324867724867725
Individual scores: [ 0.5952381   0.59722222  0.705     ]
Confusion matrix:
Predicted    0   1    2  __all__
Actual                          
0           75   7   28      110
1           14  43   12       69
2           53  25  141      219
__all__    142  75  181      398


Model summary
_________________________________________________________________
Layer (type)                 Output Shape              Param #   
=================================================================
embedding_1 (Embedding)      (None, 20, 300)           1966800   
_________________________________________________________________
dropout_1 (Dropout)          (None, 20, 300)           0         
_________________________________________________________________
conv1d_1 (Conv1D)            (None, 16, 175)           262675    
_________________________________________________________________
max_pooling1d_1 (MaxPooling1 (None, 4, 175)            0         
_________________________________________________________________
lstm_1 (LSTM)                (None, 70)                68880     
_________________________________________________________________
dense_1 (Dense)              (None, 3)                 213       
_________________________________________________________________
activation_1 (Activation)    (None, 3)                 0         
=================================================================
Total params: 2,298,568
Trainable params: 2,298,568
Non-trainable params: 0
_________________________________________________________________
