Micro-averaged F1: 0.6348182283666155
Individual scores: [ 0.5952381   0.58064516  0.72857143]
Confusion matrix:
Predicted    0   1    2  __all__
Actual                          
0           75   4   31      110
1           16  36   17       69
2           51  15  153      219
__all__    142  55  201      398


Model summary
_________________________________________________________________
Layer (type)                 Output Shape              Param #   
=================================================================
embedding_1 (Embedding)      (None, 20, 300)           1966800   
_________________________________________________________________
dropout_1 (Dropout)          (None, 20, 300)           0         
_________________________________________________________________
conv1d_1 (Conv1D)            (None, 16, 250)           375250    
_________________________________________________________________
max_pooling1d_1 (MaxPooling1 (None, 4, 250)            0         
_________________________________________________________________
lstm_1 (LSTM)                (None, 128)               194048    
_________________________________________________________________
dense_1 (Dense)              (None, 3)                 387       
_________________________________________________________________
activation_1 (Activation)    (None, 3)                 0         
=================================================================
Total params: 2,536,485
Trainable params: 2,536,485
Non-trainable params: 0
_________________________________________________________________
