Micro-averaged F1: 0.6257317206878162
Individual scores: [ 0.57831325  0.57627119  0.72261072]
Confusion matrix:
Predicted    0   1    2  __all__
Actual                          
0           72   5   33      110
1           13  34   22       69
2           54  10  155      219
__all__    139  49  210      398


Model summary
_________________________________________________________________
Layer (type)                 Output Shape              Param #   
=================================================================
embedding_1 (Embedding)      (None, 20, 300)           1966800   
_________________________________________________________________
dropout_1 (Dropout)          (None, 20, 300)           0         
_________________________________________________________________
conv1d_1 (Conv1D)            (None, 16, 250)           375250    
_________________________________________________________________
max_pooling1d_1 (MaxPooling1 (None, 4, 250)            0         
_________________________________________________________________
lstm_1 (LSTM)                (None, 128)               194048    
_________________________________________________________________
dense_1 (Dense)              (None, 3)                 387       
_________________________________________________________________
activation_1 (Activation)    (None, 3)                 0         
=================================================================
Total params: 2,536,485
Trainable params: 2,536,485
Non-trainable params: 0
_________________________________________________________________
