Micro-averaged F1: 0.614975613711929
Individual scores: [ 0.56038647  0.54676259  0.73777778]
Confusion matrix:
Predicted   0   1    2  __all__
Actual                         
0          58   9   43      110
1           9  38   22       69
2          30  23  166      219
__all__    97  70  231      398


Model summary
_________________________________________________________________
Layer (type)                 Output Shape              Param #   
=================================================================
embedding_1 (Embedding)      (None, 20, 300)           1966800   
_________________________________________________________________
dropout_1 (Dropout)          (None, 20, 300)           0         
_________________________________________________________________
conv1d_1 (Conv1D)            (None, 16, 100)           150100    
_________________________________________________________________
max_pooling1d_1 (MaxPooling1 (None, 4, 100)            0         
_________________________________________________________________
lstm_1 (LSTM)                (None, 70)                47880     
_________________________________________________________________
dense_1 (Dense)              (None, 3)                 213       
_________________________________________________________________
activation_1 (Activation)    (None, 3)                 0         
=================================================================
Total params: 2,164,993
Trainable params: 2,164,993
Non-trainable params: 0
_________________________________________________________________
