Micro-averaged F1: 0.6266824082647385
Individual scores: [ 0.56281407  0.57364341  0.74358974]
Confusion matrix:
Predicted   0   1    2  __all__
Actual                         
0          56   8   46      110
1           3  37   29       69
2          30  15  174      219
__all__    89  60  249      398


Model summary
_________________________________________________________________
Layer (type)                 Output Shape              Param #   
=================================================================
embedding_1 (Embedding)      (None, 20, 300)           1966800   
_________________________________________________________________
dropout_1 (Dropout)          (None, 20, 300)           0         
_________________________________________________________________
conv1d_1 (Conv1D)            (None, 16, 175)           262675    
_________________________________________________________________
max_pooling1d_1 (MaxPooling1 (None, 4, 175)            0         
_________________________________________________________________
lstm_1 (LSTM)                (None, 70)                68880     
_________________________________________________________________
dense_1 (Dense)              (None, 3)                 213       
_________________________________________________________________
activation_1 (Activation)    (None, 3)                 0         
=================================================================
Total params: 2,298,568
Trainable params: 2,298,568
Non-trainable params: 0
_________________________________________________________________
