Micro-averaged F1: 0.5949761225100625
Individual scores: [ 0.50574713  0.51612903  0.76305221]
Confusion matrix:
Predicted   0   1    2  __all__
Actual                         
0          44   8   58      110
1           6  32   31       69
2          14  15  190      219
__all__    64  55  279      398


Model summary
_________________________________________________________________
Layer (type)                 Output Shape              Param #   
=================================================================
embedding_1 (Embedding)      (None, 20, 300)           1966800   
_________________________________________________________________
dropout_1 (Dropout)          (None, 20, 300)           0         
_________________________________________________________________
conv1d_1 (Conv1D)            (None, 18, 100)           90100     
_________________________________________________________________
max_pooling1d_1 (MaxPooling1 (None, 4, 100)            0         
_________________________________________________________________
lstm_1 (LSTM)                (None, 70)                47880     
_________________________________________________________________
dense_1 (Dense)              (None, 3)                 213       
_________________________________________________________________
activation_1 (Activation)    (None, 3)                 0         
=================================================================
Total params: 2,104,993
Trainable params: 2,104,993
Non-trainable params: 0
_________________________________________________________________
