Micro-averaged F1: 0.44401640408988846
Individual scores: [ 0.06956522  0.53521127  0.72727273]
Confusion matrix:
Predicted  0   1    2  __all__
Actual                        
0          4  13   93      110
1          0  38   31       69
2          1  22  196      219
__all__    5  73  320      398


Model summary
_________________________________________________________________
Layer (type)                 Output Shape              Param #   
=================================================================
embedding_1 (Embedding)      (None, 20, 300)           1966800   
_________________________________________________________________
dropout_1 (Dropout)          (None, 20, 300)           0         
_________________________________________________________________
conv1d_1 (Conv1D)            (None, 16, 175)           262675    
_________________________________________________________________
global_max_pooling1d_1 (Glob (None, 175)               0         
_________________________________________________________________
dense_1 (Dense)              (None, 3)                 528       
_________________________________________________________________
activation_1 (Activation)    (None, 3)                 0         
=================================================================
Total params: 2,230,003
Trainable params: 2,230,003
Non-trainable params: 0
_________________________________________________________________
