Micro-averaged F1: 0.6250221631205674
Individual scores: [ 0.55319149  0.546875    0.775     ]
Confusion matrix:
Predicted   0   1    2  __all__
Actual                         
0          52   9   49      110
1           8  35   26       69
2          18  15  186      219
__all__    78  59  261      398


Model summary
_________________________________________________________________
Layer (type)                 Output Shape              Param #   
=================================================================
embedding_1 (Embedding)      (None, 20, 300)           1966800   
_________________________________________________________________
dropout_1 (Dropout)          (None, 20, 300)           0         
_________________________________________________________________
conv1d_1 (Conv1D)            (None, 18, 175)           157675    
_________________________________________________________________
max_pooling1d_1 (MaxPooling1 (None, 4, 175)            0         
_________________________________________________________________
lstm_1 (LSTM)                (None, 70)                68880     
_________________________________________________________________
dense_1 (Dense)              (None, 3)                 213       
_________________________________________________________________
activation_1 (Activation)    (None, 3)                 0         
=================================================================
Total params: 2,193,568
Trainable params: 2,193,568
Non-trainable params: 0
_________________________________________________________________
