Micro-averaged F1: 0.6816333835267502
Individual scores: [ 0.60204082  0.6504065   0.79245283]
Confusion matrix:
Predicted   0   1    2  __all__
Actual                         
0          59   2   49      110
1           9  40   20       69
2          18  12  189      219
__all__    86  54  258      398


Model summary
_________________________________________________________________
Layer (type)                 Output Shape              Param #   
=================================================================
embedding_1 (Embedding)      (None, 20, 300)           1966800   
_________________________________________________________________
dropout_1 (Dropout)          (None, 20, 300)           0         
_________________________________________________________________
conv1d_1 (Conv1D)            (None, 16, 250)           375250    
_________________________________________________________________
global_max_pooling1d_1 (Glob (None, 250)               0         
_________________________________________________________________
dense_1 (Dense)              (None, 3)                 753       
_________________________________________________________________
activation_1 (Activation)    (None, 3)                 0         
=================================================================
Total params: 2,342,803
Trainable params: 2,342,803
Non-trainable params: 0
_________________________________________________________________
