Micro-averaged F1: 0.6540239343347577
Individual scores: [ 0.59574468  0.592       0.77432712]
Confusion matrix:
Predicted   0   1    2  __all__
Actual                         
0          56   3   51      110
1           6  37   26       69
2          16  16  187      219
__all__    78  56  264      398


Model summary
_________________________________________________________________
Layer (type)                 Output Shape              Param #   
=================================================================
embedding_1 (Embedding)      (None, 20, 300)           1966800   
_________________________________________________________________
dropout_1 (Dropout)          (None, 20, 300)           0         
_________________________________________________________________
conv1d_1 (Conv1D)            (None, 16, 100)           150100    
_________________________________________________________________
global_max_pooling1d_1 (Glob (None, 100)               0         
_________________________________________________________________
dense_1 (Dense)              (None, 3)                 303       
_________________________________________________________________
activation_1 (Activation)    (None, 3)                 0         
=================================================================
Total params: 2,117,203
Trainable params: 2,117,203
Non-trainable params: 0
_________________________________________________________________
