Micro-averaged F1: 0.6611988709722864
Individual scores: [ 0.57142857  0.63934426  0.77282378]
Confusion matrix:
Predicted   0   1    2  __all__
Actual                         
0          58   4   48      110
1           8  39   22       69
2          27  10  182      219
__all__    93  53  252      398


Model summary
_________________________________________________________________
Layer (type)                 Output Shape              Param #   
=================================================================
embedding_1 (Embedding)      (None, 20, 300)           1966800   
_________________________________________________________________
dropout_1 (Dropout)          (None, 20, 300)           0         
_________________________________________________________________
conv1d_1 (Conv1D)            (None, 18, 175)           157675    
_________________________________________________________________
global_max_pooling1d_1 (Glob (None, 175)               0         
_________________________________________________________________
dense_1 (Dense)              (None, 3)                 528       
_________________________________________________________________
activation_1 (Activation)    (None, 3)                 0         
=================================================================
Total params: 2,125,003
Trainable params: 2,125,003
Non-trainable params: 0
_________________________________________________________________
