Micro-averaged F1: 0.5566856005461379
Individual scores: [ 0.41772152  0.496       0.75633528]
Confusion matrix:
Predicted   0   1    2  __all__
Actual                         
0          33  10   67      110
1           5  31   33       69
2          10  15  194      219
__all__    48  56  294      398


Model summary
_________________________________________________________________
Layer (type)                 Output Shape              Param #   
=================================================================
embedding_1 (Embedding)      (None, 20, 300)           1966800   
_________________________________________________________________
dropout_1 (Dropout)          (None, 20, 300)           0         
_________________________________________________________________
conv1d_1 (Conv1D)            (None, 18, 100)           90100     
_________________________________________________________________
max_pooling1d_1 (MaxPooling1 (None, 4, 100)            0         
_________________________________________________________________
lstm_1 (LSTM)                (None, 128)               117248    
_________________________________________________________________
dense_1 (Dense)              (None, 3)                 387       
_________________________________________________________________
activation_1 (Activation)    (None, 3)                 0         
=================================================================
Total params: 2,174,535
Trainable params: 2,174,535
Non-trainable params: 0
_________________________________________________________________
