Micro-averaged F1: 0.413297521440015
Individual scores: [ 0.          0.51851852  0.72137405]
Confusion matrix:
Predicted  0   1    2  __all__
Actual                        
0          0  21   89      110
1          0  42   27       69
2          0  30  189      219
__all__    0  93  305      398


Model summary
_________________________________________________________________
Layer (type)                 Output Shape              Param #   
=================================================================
embedding_1 (Embedding)      (None, 20, 300)           1966800   
_________________________________________________________________
dropout_1 (Dropout)          (None, 20, 300)           0         
_________________________________________________________________
conv1d_1 (Conv1D)            (None, 18, 175)           157675    
_________________________________________________________________
global_max_pooling1d_1 (Glob (None, 175)               0         
_________________________________________________________________
dense_1 (Dense)              (None, 3)                 528       
_________________________________________________________________
activation_1 (Activation)    (None, 3)                 0         
=================================================================
Total params: 2,125,003
Trainable params: 2,125,003
Non-trainable params: 0
_________________________________________________________________
