Micro-averaged F1: 0.6422379161158626
Individual scores: [ 0.56842105  0.58119658  0.77709611]
Confusion matrix:
Predicted   0   1    2  __all__
Actual                         
0          54   3   53      110
1           8  34   27       69
2          18  11  190      219
__all__    80  48  270      398


Model summary
_________________________________________________________________
Layer (type)                 Output Shape              Param #   
=================================================================
embedding_1 (Embedding)      (None, 20, 300)           1966800   
_________________________________________________________________
dropout_1 (Dropout)          (None, 20, 300)           0         
_________________________________________________________________
conv1d_1 (Conv1D)            (None, 16, 100)           150100    
_________________________________________________________________
max_pooling1d_1 (MaxPooling1 (None, 4, 100)            0         
_________________________________________________________________
lstm_1 (LSTM)                (None, 70)                47880     
_________________________________________________________________
dense_1 (Dense)              (None, 3)                 213       
_________________________________________________________________
activation_1 (Activation)    (None, 3)                 0         
=================================================================
Total params: 2,164,993
Trainable params: 2,164,993
Non-trainable params: 0
_________________________________________________________________
