Micro-averaged F1: 0.5520578520942693
Individual scores: [ 0.36363636  0.54304636  0.74949084]
Confusion matrix:
Predicted   0   1    2  __all__
Actual                         
0          28  17   65      110
1           5  41   23       69
2          11  24  184      219
__all__    44  82  272      398


Model summary
_________________________________________________________________
Layer (type)                 Output Shape              Param #   
=================================================================
embedding_1 (Embedding)      (None, 20, 300)           1966800   
_________________________________________________________________
dropout_1 (Dropout)          (None, 20, 300)           0         
_________________________________________________________________
conv1d_1 (Conv1D)            (None, 18, 100)           90100     
_________________________________________________________________
global_max_pooling1d_1 (Glob (None, 100)               0         
_________________________________________________________________
dense_1 (Dense)              (None, 3)                 303       
_________________________________________________________________
activation_1 (Activation)    (None, 3)                 0         
=================================================================
Total params: 2,057,203
Trainable params: 2,057,203
Non-trainable params: 0
_________________________________________________________________
