Micro-averaged F1: 0.5763246012541988
Individual scores: [ 0.46994536  0.50746269  0.75156576]
Confusion matrix:
Predicted   0   1    2  __all__
Actual                         
0          43  11   56      110
1          11  34   24       69
2          19  20  180      219
__all__    73  65  260      398


Model summary
_________________________________________________________________
Layer (type)                 Output Shape              Param #   
=================================================================
embedding_1 (Embedding)      (None, 20, 300)           1966800   
_________________________________________________________________
dropout_1 (Dropout)          (None, 20, 300)           0         
_________________________________________________________________
conv1d_1 (Conv1D)            (None, 18, 175)           157675    
_________________________________________________________________
max_pooling1d_1 (MaxPooling1 (None, 4, 175)            0         
_________________________________________________________________
lstm_1 (LSTM)                (None, 128)               155648    
_________________________________________________________________
dense_1 (Dense)              (None, 3)                 387       
_________________________________________________________________
activation_1 (Activation)    (None, 3)                 0         
=================================================================
Total params: 2,280,510
Trainable params: 2,280,510
Non-trainable params: 0
_________________________________________________________________
