Micro-averaged F1: 0.6461748850378893
Individual scores: [ 0.5483871   0.62318841  0.76694915]
Confusion matrix:
Predicted   0   1    2  __all__
Actual                         
0          51   7   52      110
1           6  43   20       69
2          19  19  181      219
__all__    76  69  253      398


Model summary
_________________________________________________________________
Layer (type)                 Output Shape              Param #   
=================================================================
embedding_1 (Embedding)      (None, 20, 300)           1966800   
_________________________________________________________________
dropout_1 (Dropout)          (None, 20, 300)           0         
_________________________________________________________________
conv1d_1 (Conv1D)            (None, 16, 175)           262675    
_________________________________________________________________
max_pooling1d_1 (MaxPooling1 (None, 4, 175)            0         
_________________________________________________________________
lstm_1 (LSTM)                (None, 70)                68880     
_________________________________________________________________
dense_1 (Dense)              (None, 3)                 213       
_________________________________________________________________
activation_1 (Activation)    (None, 3)                 0         
=================================================================
Total params: 2,298,568
Trainable params: 2,298,568
Non-trainable params: 0
_________________________________________________________________
