Micro-averaged F1: 0.6243723269147162
Individual scores: [ 0.56435644  0.55223881  0.75652174]
Confusion matrix:
Predicted   0   1    2  __all__
Actual                         
0          57   9   44      110
1           9  37   23       69
2          26  19  174      219
__all__    92  65  241      398


Model summary
_________________________________________________________________
Layer (type)                 Output Shape              Param #   
=================================================================
embedding_1 (Embedding)      (None, 20, 300)           1966800   
_________________________________________________________________
dropout_1 (Dropout)          (None, 20, 300)           0         
_________________________________________________________________
conv1d_1 (Conv1D)            (None, 18, 250)           225250    
_________________________________________________________________
max_pooling1d_1 (MaxPooling1 (None, 4, 250)            0         
_________________________________________________________________
lstm_1 (LSTM)                (None, 70)                89880     
_________________________________________________________________
dense_1 (Dense)              (None, 3)                 213       
_________________________________________________________________
activation_1 (Activation)    (None, 3)                 0         
=================================================================
Total params: 2,282,143
Trainable params: 2,282,143
Non-trainable params: 0
_________________________________________________________________
