Micro-averaged F1: 0.6183549245659629
Individual scores: [ 0.54450262  0.53571429  0.77484787]
Confusion matrix:
Predicted   0   1    2  __all__
Actual                         
0          52   6   52      110
1           8  30   31       69
2          21   7  191      219
__all__    81  43  274      398


Model summary
_________________________________________________________________
Layer (type)                 Output Shape              Param #   
=================================================================
embedding_1 (Embedding)      (None, 20, 300)           1966800   
_________________________________________________________________
dropout_1 (Dropout)          (None, 20, 300)           0         
_________________________________________________________________
conv1d_1 (Conv1D)            (None, 18, 250)           225250    
_________________________________________________________________
max_pooling1d_1 (MaxPooling1 (None, 4, 250)            0         
_________________________________________________________________
lstm_1 (LSTM)                (None, 70)                89880     
_________________________________________________________________
dense_1 (Dense)              (None, 3)                 213       
_________________________________________________________________
activation_1 (Activation)    (None, 3)                 0         
=================================================================
Total params: 2,282,143
Trainable params: 2,282,143
Non-trainable params: 0
_________________________________________________________________
