Micro-averaged F1: 0.6611268322627978
Individual scores: [ 0.55248619  0.6504065   0.7804878 ]
Confusion matrix:
Predicted   0   1    2  __all__
Actual                         
0          50   3   57      110
1           5  40   24       69
2          16  11  192      219
__all__    71  54  273      398


Model summary
_________________________________________________________________
Layer (type)                 Output Shape              Param #   
=================================================================
embedding_1 (Embedding)      (None, 20, 300)           1966800   
_________________________________________________________________
dropout_1 (Dropout)          (None, 20, 300)           0         
_________________________________________________________________
conv1d_1 (Conv1D)            (None, 16, 175)           262675    
_________________________________________________________________
global_max_pooling1d_1 (Glob (None, 175)               0         
_________________________________________________________________
dense_1 (Dense)              (None, 3)                 528       
_________________________________________________________________
activation_1 (Activation)    (None, 3)                 0         
=================================================================
Total params: 2,230,003
Trainable params: 2,230,003
Non-trainable params: 0
_________________________________________________________________
