Micro-averaged F1: 0.6454868747411192
Individual scores: [ 0.6015625   0.59504132  0.7398568 ]
Confusion matrix:
Predicted    0   1    2  __all__
Actual                          
0           77   4   29      110
1           17  36   16       69
2           52  12  155      219
__all__    146  52  200      398


Model summary
_________________________________________________________________
Layer (type)                 Output Shape              Param #   
=================================================================
embedding_1 (Embedding)      (None, 20, 300)           1966800   
_________________________________________________________________
dropout_1 (Dropout)          (None, 20, 300)           0         
_________________________________________________________________
conv1d_1 (Conv1D)            (None, 16, 250)           375250    
_________________________________________________________________
max_pooling1d_1 (MaxPooling1 (None, 4, 250)            0         
_________________________________________________________________
lstm_1 (LSTM)                (None, 70)                89880     
_________________________________________________________________
dense_1 (Dense)              (None, 3)                 213       
_________________________________________________________________
activation_1 (Activation)    (None, 3)                 0         
=================================================================
Total params: 2,432,143
Trainable params: 2,432,143
Non-trainable params: 0
_________________________________________________________________
