Micro-averaged F1: 0.6186602870813397
Individual scores: [ 0.54        0.54545455  0.77052632]
Confusion matrix:
Predicted   0   1    2  __all__
Actual                         
0          54   7   49      110
1          12  33   24       69
2          24  12  183      219
__all__    90  52  256      398


Model summary
_________________________________________________________________
Layer (type)                 Output Shape              Param #   
=================================================================
embedding_1 (Embedding)      (None, 20, 300)           1966800   
_________________________________________________________________
dropout_1 (Dropout)          (None, 20, 300)           0         
_________________________________________________________________
conv1d_1 (Conv1D)            (None, 18, 250)           225250    
_________________________________________________________________
max_pooling1d_1 (MaxPooling1 (None, 4, 250)            0         
_________________________________________________________________
lstm_1 (LSTM)                (None, 70)                89880     
_________________________________________________________________
dense_1 (Dense)              (None, 3)                 213       
_________________________________________________________________
activation_1 (Activation)    (None, 3)                 0         
=================================================================
Total params: 2,282,143
Trainable params: 2,282,143
Non-trainable params: 0
_________________________________________________________________
