Micro-averaged F1: 0.6449291876499488
Individual scores: [ 0.57276995  0.61313869  0.74887892]
Confusion matrix:
Predicted    0   1    2  __all__
Actual                          
0           61   8   41      110
1            8  42   19       69
2           34  18  167      219
__all__    103  68  227      398


Model summary
_________________________________________________________________
Layer (type)                 Output Shape              Param #   
=================================================================
embedding_1 (Embedding)      (None, 20, 300)           1966800   
_________________________________________________________________
dropout_1 (Dropout)          (None, 20, 300)           0         
_________________________________________________________________
conv1d_1 (Conv1D)            (None, 16, 100)           150100    
_________________________________________________________________
max_pooling1d_1 (MaxPooling1 (None, 4, 100)            0         
_________________________________________________________________
lstm_1 (LSTM)                (None, 128)               117248    
_________________________________________________________________
dense_1 (Dense)              (None, 3)                 387       
_________________________________________________________________
activation_1 (Activation)    (None, 3)                 0         
=================================================================
Total params: 2,234,535
Trainable params: 2,234,535
Non-trainable params: 0
_________________________________________________________________
