Micro-averaged F1: 0.61015559732665
Individual scores: [ 0.54385965  0.55        0.73660714]
Confusion matrix:
Predicted    0   1    2  __all__
Actual                          
0           62   6   42      110
1           14  33   22       69
2           42  12  165      219
__all__    118  51  229      398


Model summary
_________________________________________________________________
Layer (type)                 Output Shape              Param #   
=================================================================
embedding_1 (Embedding)      (None, 20, 300)           1966800   
_________________________________________________________________
dropout_1 (Dropout)          (None, 20, 300)           0         
_________________________________________________________________
conv1d_1 (Conv1D)            (None, 18, 250)           225250    
_________________________________________________________________
max_pooling1d_1 (MaxPooling1 (None, 4, 250)            0         
_________________________________________________________________
lstm_1 (LSTM)                (None, 128)               194048    
_________________________________________________________________
dense_1 (Dense)              (None, 3)                 387       
_________________________________________________________________
activation_1 (Activation)    (None, 3)                 0         
=================================================================
Total params: 2,386,485
Trainable params: 2,386,485
Non-trainable params: 0
_________________________________________________________________
