Micro-averaged F1: 0.575055474655017
Individual scores: [ 0.48863636  0.47368421  0.76284585]
Confusion matrix:
Predicted   0   1    2  __all__
Actual                         
0          43   6   61      110
1           9  27   33       69
2          14  12  193      219
__all__    66  45  287      398


Model summary
_________________________________________________________________
Layer (type)                 Output Shape              Param #   
=================================================================
embedding_1 (Embedding)      (None, 20, 300)           1966800   
_________________________________________________________________
dropout_1 (Dropout)          (None, 20, 300)           0         
_________________________________________________________________
conv1d_1 (Conv1D)            (None, 18, 175)           157675    
_________________________________________________________________
max_pooling1d_1 (MaxPooling1 (None, 4, 175)            0         
_________________________________________________________________
lstm_1 (LSTM)                (None, 128)               155648    
_________________________________________________________________
dense_1 (Dense)              (None, 3)                 387       
_________________________________________________________________
activation_1 (Activation)    (None, 3)                 0         
=================================================================
Total params: 2,280,510
Trainable params: 2,280,510
Non-trainable params: 0
_________________________________________________________________
