Micro-averaged F1: 0.6851079016697623
Individual scores: [ 0.60913706  0.66153846  0.78464819]
Confusion matrix:
Predicted   0   1    2  __all__
Actual                         
0          60   3   47      110
1           7  43   19       69
2          20  15  184      219
__all__    87  61  250      398


Model summary
_________________________________________________________________
Layer (type)                 Output Shape              Param #   
=================================================================
embedding_1 (Embedding)      (None, 20, 300)           1966800   
_________________________________________________________________
dropout_1 (Dropout)          (None, 20, 300)           0         
_________________________________________________________________
conv1d_1 (Conv1D)            (None, 16, 250)           375250    
_________________________________________________________________
global_max_pooling1d_1 (Glob (None, 250)               0         
_________________________________________________________________
dense_1 (Dense)              (None, 3)                 753       
_________________________________________________________________
activation_1 (Activation)    (None, 3)                 0         
=================================================================
Total params: 2,342,803
Trainable params: 2,342,803
Non-trainable params: 0
_________________________________________________________________
