Micro-averaged F1: 0.4314057284505872
Individual scores: [ 0.05217391  0.52054795  0.72149533]
Confusion matrix:
Predicted  0   1    2  __all__
Actual                        
0          3  14   93      110
1          1  38   30       69
2          1  25  193      219
__all__    5  77  316      398


Model summary
_________________________________________________________________
Layer (type)                 Output Shape              Param #   
=================================================================
embedding_1 (Embedding)      (None, 20, 300)           1966800   
_________________________________________________________________
dropout_1 (Dropout)          (None, 20, 300)           0         
_________________________________________________________________
conv1d_1 (Conv1D)            (None, 16, 100)           150100    
_________________________________________________________________
global_max_pooling1d_1 (Glob (None, 100)               0         
_________________________________________________________________
dense_1 (Dense)              (None, 3)                 303       
_________________________________________________________________
activation_1 (Activation)    (None, 3)                 0         
=================================================================
Total params: 2,117,203
Trainable params: 2,117,203
Non-trainable params: 0
_________________________________________________________________
