Micro-averaged F1: 0.6273107980014311
Individual scores: [ 0.60759494  0.54794521  0.72639225]
Confusion matrix:
Predicted    0   1    2  __all__
Actual                          
0           72  10   28      110
1           13  40   16       69
2           42  27  150      219
__all__    127  77  194      398


Model summary
_________________________________________________________________
Layer (type)                 Output Shape              Param #   
=================================================================
embedding_1 (Embedding)      (None, 20, 300)           1966800   
_________________________________________________________________
dropout_1 (Dropout)          (None, 20, 300)           0         
_________________________________________________________________
conv1d_1 (Conv1D)            (None, 18, 100)           90100     
_________________________________________________________________
max_pooling1d_1 (MaxPooling1 (None, 4, 100)            0         
_________________________________________________________________
lstm_1 (LSTM)                (None, 70)                47880     
_________________________________________________________________
dense_1 (Dense)              (None, 3)                 213       
_________________________________________________________________
activation_1 (Activation)    (None, 3)                 0         
=================================================================
Total params: 2,104,993
Trainable params: 2,104,993
Non-trainable params: 0
_________________________________________________________________
